pytorch_LeNet5/parameters_standard/conv3_bias.npy (npy, 608 bytes, 1 tensors)

array f4 [120]
00000000: 93f6 7dbb 0d2f 62bc d2fe 083d a6fd 523c
00000010: ad35 f3bc 0f69 c43c 138d 01b8 6e9d 473d
00000020: a245 9fba 7abe f0bb c50f b5bc c06c 123d
00000030: 7ce5 0e3c 88ea 79bc 51d5 febc dfb1 36bd
00000040: 3d60 04bc 4836 3ebd 533c 6abc cdb4 0abd
00000050: 08cc f83c f414 e7bb 4581 49bd 72aa 003d
00000060: 3d66 07bd b94f 283d f37a 0ebd c501 e7bc
00000070: 9033 acbc 785f 433d 82ef 2b3c ff8b 543b
00000080: e35f 8fbc cde2 64bb 9ff6 b63c 918b fa3c
00000090: 4eb3 34bc b6e4 e03b 2124 843c 95dd 28bd
000000a0: dd5e a3bb f883 edbc 2344 553d e65f 9a3c
000000b0: 534c 4ebc 9b56 28bd 2459 20bd 02fc 043d
000000c0: 732f 58bc 888b 84bc 9a38 babc 51fc 1fbd
000000d0: 1b76 ee3c 8a39 be3a 09e2 a0bb 8ea3 283d
000000e0: b2f8 153d a5d3 183d 42ac b6bc 826a 5b3c
000000f0: b801 963c 054a 11bd 4089 c1bc 49fe 35bd
00000100: 29d0 1c3d 5f36 07bd ae4f ecbc 0dcf bcbc
00000110: 1804 e03c b5cc e9bc 4c46 13bd e017 d63c
00000120: 9a6b 20bc fb13 07bd 803b c53b 526a 153d
00000130: 9929 523d 43aa 313d 947a b7bb e3f4 3ebc
00000140: a0d6 d03c 5ba0 5e3c 1330 9f3c a1eb ca3c
00000150: 1c27 093d 691c 62bc 281a 363d 1631 013d
00000160: 12c2 b1bb 7ea3 163d e76d 383c e890 69bb
00000170: 6d9b 1fbb f1c2 373d 3578 e33c 66f2 de3c
00000180: b4e6 a3bc 13af ac3a 05bc c6bc 22e0 a63c
00000190: 4fa8 7c3c 8490 343d f7c9 e1bc 2b5a 433d
000001a0: 1fb3 4d3b e22e 16bd 9ccd 383d 5e6b 84bc
000001b0: a424 513c a4d4 3ebd 6144 c9bc 6581 39bd
000001c0: 5198 8dba e554 8b3c 984c 00bd ea17 203d
000001d0: cbb1 6fbb 0de7 dbbb bad8 bd3c 9cee 593c
-0.0038751706 -0.013805163 0.03344614 0.012877857 -0.02968868 0.023975877 -3.0887382e-05 0.04873412
-0.001215149 -0.0073469253 -0.022102246 0.035748243 0.0087217055 -0.0152536705 -0.031107577 -0.044603225
-0.008079586 -0.046438485 -0.014296609 -0.03386383 0.030370727 -0.0070520584 -0.049195547 0.03141255
-0.033056486 0.041091654 -0.034785222 -0.028199086 -0.02102068 0.047698468 0.010494115 0.0032432077
-0.017501777 -0.0034925223 0.022334395 0.030584129 -0.011029078 0.006863202 0.016130509 -0.041226942
-0.004985674 -0.028993592 0.052066933 0.018844556 -0.012591439 -0.04109822 -0.03914751 0.032466896
-0.0131949065 -0.016179815 -0.022732068 -0.039058987 0.029109051 0.0014512998 -0.004909758 0.041171603
0.036614127 0.037311215 -0.022298936 0.013392093 0.018311366 -0.03547098 -0.023625016 -0.04443196
0.038284454 -0.033010837 -0.028846588 -0.023047948 0.027345702 -0.028539995 -0.035955712 0.026134431
-0.009791279 -0.03297804 0.006019056 0.036478348 0.051309202 0.043375265 -0.0055993292 -0.011655065
0.025492966 0.013588036 0.019432103 0.02477056 0.033484563 -0.013800719 0.04445854 0.031540953
-0.0054247463 0.036777012 0.0112566715 -0.003563935 -0.0024354116 0.044863645 0.02776728 0.027215194
-0.020007469 0.0013174735 -0.024259577 0.020370547 0.015420987 0.044083133 -0.027562125 0.047693413
0.0031387282 -0.036665805 0.04511796 -0.016164478 0.012765083 -0.04658951 -0.024568738 -0.045289416
-0.001080284 0.017008254 -0.031323045 0.039085306 -0.0036574479 -0.006710893 0.023174632 0.013301518
