pytorch_LeNet5/parameters_standard/conv2_weight.npy (npy, 9728 bytes, 1 tensors)

array f4 [16, 6, 5, 5]
0.032699827 0.026841545 -0.15547377 -0.016718889 0.044034436 0.032670554 0.013376475 -0.069563694
0.032659493 -0.053614978 -0.015008861 -0.08351617 0.0881458 0.035971124 -0.08655776 0.07865806
-0.02978076 -0.063053995 0.061866056 -0.01708967 0.14026828 0.112576626 -0.07376366 0.07302125
0.009499746 -0.011917975 0.003692166 -0.116560645 -0.08853195 0.07395578 -0.0651921 -0.14315723
-0.08695474 -0.07394576 -0.016720934 -0.08794219 -0.10586163 -0.08016694 0.023696972 -0.009381702
0.041877776 -0.078877054 0.082959734 -0.017906772 -0.0023119047 -0.07234726 0.0025192208 -0.0077714697
0.03947774 0.032346703 -0.04689581 -0.016160466 0.12501776 0.10859027 -0.039115034 -0.01451207
0.10550262 0.103921495 0.15080978 0.08927848 -0.028933117 0.017820107 0.092761286 0.13900027
0.082051255 -0.054335337 -0.17819321 -0.22997198 0.018753951 0.019871986 -0.097971864 -0.15407898
-0.16392161 -0.22990657 -0.19084677 -0.09896527 0.011542603 -0.012856235 -0.036646828 0.05026015
-0.07410824 -0.052616872 -0.17229585 0.026942194 0.009524748 -0.008587944 0.024683155 -0.057252564
0.027550187 -0.029594373 0.016719848 0.09708655 0.11653627 0.024742335 -0.050238222 0.09548112
0.1640711 0.10794816 0.01675898 0.03301062 0.075009696 0.023404213 -0.02310722 0.078112915
-0.0024298085 -0.07877844 -0.065735444 0.118348286 0.13559751 0.090404175 -0.11395962 -0.08755337
0.040894147 0.038739912 0.1450355 -0.0066907513 -0.1001789 -0.11204231 -0.01376435 -0.04236096
-0.035944995 -0.071134016 -0.046652842 -0.10087353 -0.1448636 0.03896657 -0.02482313 0.038245253
-0.055693693 -0.037892528 0.023347301 0.03178322 0.039077397 -0.030802054 0.045688257 0.0750646
-0.006627237 -0.035451926 0.03579461 0.015503496 0.076369435 -0.10730953 -0.031270992 -0.02702183
-0.078228295 0.121504806 0.048040688 -0.047767945 -0.026966412 -0.14774936 -0.024108633 0.055789664
0.093927756 0.099102296 0.059457224 -0.05301334 0.045534156 0.016183311 0.16171405 0.13294208
-0.04710096 -0.12804572 -0.104080945 -0.042022396 0.06380856 -0.0052634985 0.03569959 -0.056609385
-0.040174868 0.04170428 -0.08413751 0.03982893 -0.09654571 -0.0803222 -0.15728602 0.02653801
-0.010412294 0.020978883 0.06417218 0.088047855 0.045711543 0.15525308 0.1308734 -0.044683173
-0.048074327 -0.027262704 0.028003091 0.005445445 -0.14767347 -0.14470252 -0.03390198 -0.05725957
-0.12581827 -0.15181015 -0.0809258 -0.021523131 -0.024064112 -0.04354526 -0.005350182 0.10328912
0.0107292505 0.079344764 0.017532898 0.028715312 -0.039324094 0.060099438 0.024494175 0.05235408
0.048834775 -0.01420079 -0.05491328 0.06804496 0.080204815 0.026193656 -0.03946509 0.01616917
0.049308714 -0.1374478 -0.09659493 -0.022954503 0.041542064 0.020384517 0.07439667 0.126108
0.12385414 -0.04593881 -0.056567945 0.035546437 -0.0038013426 -0.20288938 -0.13193782 0.014663978
-0.08000664 -0.172196 -0.18454145 -0.107959576 0.06960972 0.05013586 0.046817955 0.07071851
0.12032142 0.0977131 0.060931884 0.08951861 0.13933371 0.12186852 0.15584995 0.16748218
0.13055296 0.20196833 -0.023966089 0.0768002 0.107462235 0.00058244145 -0.08161825 0.0047115795
00000000: 41f0 053d cde2 db3c 8434 1fbe 0df6 88bc
00000010: 745d 343d 8fd1 053d 0129 5b3c 6977 8ebd
00000020: f6c5 053d 619b 5bbd bae7 75bc 870a abbd
00000030: c985 b43d 7556 133d 3245 b1bd 7a17 a13d
00000040: c8f6 f3bc 7422 81bd 4367 7d3d a3ff 8bbc
00000050: 7da2 0f3e 938e e63d 6711 97bd 2a8c 953d
00000060: d3a4 1b3c 9c43 43bc 44f8 713b 59b7 eebd
00000070: 3d50 b5bd 2176 973d 7083 85bd cf97 12be
00000080: 5415 b2bd e070 97bd 57fa 88bc 091b b4bd
00000090: fbcd d8bd 912e a4bd 2720 c23c b6b5 19bc
000000a0: 0888 2b3d 4b8a a1bd cbe6 a93d 39b1 92bc
000000b0: 5383 17bb cd2a 94bd 8319 253b d0a7 febb
000000c0: 69b3 213d fa7d 043d d215 40bd f462 84bc
000000d0: a804 003e 9364 de3d 1637 20bd 09c4 6dbc
000000e0: c211 d83d cbd4 d43d e16d 1a3e a3d7 b63d
000000f0: 2505 edbc 79fb 913c a1f9 bd3d 1656 0e3e
00000100: 7d0a a83d bb8e 5ebd 4878 36be c67d 6bbe
00000110: e3a1 993c 93ca a23c 79a5 c8bd e1c6 1dbe
00000120: 11db 27be a16c 6bbe 566d 43be 4eae cabd
00000130: 301d 3d3c f5a2 52bc fc1a 16bd 96dd 4d3d
00000140: 10c6 97bd ca84 57bd 536e 30be e0b5 dc3c
00000150: b00d 1c3c 73b4 0cbc 5434 ca3c aa81 6abd
00000160: eeb0 e13c e66f f2bc 10f8 883c 50d5 c63d
00000170: 91aa ee3d 70b0 ca3c 98c6 4dbd 9b8b c33d
00000180: 4102 283e ed13 dd3d 214a 893c 2536 073d
00000190: af9e 993d 31ba bf3c 5a4b bdbc aaf9 9f3d
000001a0: 6c3d 1fbb 9756 a1bd 4ea0 86bd 9660 f23d
000001b0: 13da 0a3e d325 b93d a963 e9bd 2e4f b3bd
000001c0: 9f80 273d bead 1e3d 3084 143e 173e dbbb
000001d0: 982a cdbd 7076 e5bd de83 61bc b082 2dbd
000001e0: 0f3b 13bd b6ae 91bd 0d17 3fbd c896 cebd
000001f0: 2057 14be 699b 1f3d e059 cbbc 0ea7 1c3d
00000200: 121f 64bd 3235 1bbd d742 bf3c 1f2f 023d
00000210: 9f0f 203d 9754 fcbc 9c23 3b3d 78bb 993d
00000220: 4b29 d9bb 0a36 11bd 5e9d 123d 6002 7e3c
00000230: 9467 9c3d 19c5 dbbd 0316 00bd e35c ddbc
00000240: 2836 a0bd 83d7 f83d 50c6 443d 52a8 43bd
00000250: aae8 dcbc 9c4b 17be 787f c5bc b483 643d
00000260: 325d c03d 25f6 ca3d 6b89 733d 8424 59bd
00000270: 0682 3a3d dd92 843c 5e98 253e f821 083e
00000280: f0ec 40bd 6b1e 03be 6428 d5bd ad1f 2cbd
00000290: 10ae 823d 6d79 acbb bc39 123d 3edf 67bd
000002a0: 678e 24bd 1bd2 2a3d 4950 acbd a923 233d
000002b0: c2b9 c5bd f77f a4bd 960f 21be 3e66 d93c
000002c0: 5498 2abc e8db ab3c b46c 833d 6f52 b43d
000002d0: 073c 3b3d aafa 1e3e ad03 063e b405 37bd
000002e0: 96e9 44bd 0956 dfbc bd66 e53c b46f b23b
000002f0: b737 17be e62c 14be cddc 0abd 0389 6abd
00000300: 81d6 00be 1f74 1bbe 6dbc a5bd 4751 b0bc
00000310: 1a22 c5bc 845c 32bd 9450 afbb 3f89 d33d
00000320: bdc9 2f3c 827f a23d 27a1 8f3c 603c eb3c
00000330: 4d12 21bd d42a 763d 02a8 c83c 3b71 563d
00000340: f906 483d 6eaa 68bc bfec 60bd 285b 8b3d
00000350: 6c42 a43d 1494 d63c 25a6 21bd 3575 843c
00000360: eff7 493d 1ebf 0cbe 90d3 c5bd 150b bcbc
00000370: 0328 2a3d 6efd a63c 485d 983d 7522 013e
00000380: 3da7 fd3d 552a 3cbd cab3 67bd 2499 113d
00000390: f21f 79bb 3cc2 4fbe b51a 07be 2e41 703c
000003a0: 85da a3bd 2654 30be 6ff8 3cbe e919 ddbd
000003b0: 8a8f 8e3d 425b 4d3d 2fc4 3f3d ded4 903d
000003c0: 146b f63d ce1d c83d b693 793d 8855 b73d
000003d0: 7fad 0e3e 3496 f93d 2197 1f3e 7380 2b3e
000003e0: adaf 053e c9d0 4e3e 8854 c4bc 6c49 9d3d
000003f0: 2915 dc3d fcae 183a 7827 a7bd 9863 9a3b
