pytorch_LeNet5/parameters_standard/conv1_weight.npy (npy, 728 bytes, 1 tensors)

array f4 [6, 1, 5, 5]
000000 82 11 c1 3d 58 87 28 be 32 70 11 3e 65 7c d3 3c
       0.094271675 -0.1645788 0.14202955 0.025816152
000010 12 fe 9b bd 8d a2 2a 3e 7b 58 a5 bd 9a 14 82 3c
       -0.076168194 0.1666357 -0.08073517 0.015878964
000020 f7 62 14 3e a7 d0 1f be 10 8a 79 3e a6 80 68 be
       0.14490877 -0.15606938 0.24369073 -0.22705325
000030 46 c4 54 be f7 a8 86 bb 04 f5 37 3d ed 25 f6 bd
       -0.20777997 -0.0041094976 0.0449114 -0.120189525
000040 f2 5c 53 be 95 b8 ee 3c ca 40 71 3e a9 4f 7b bd
       -0.20640925 0.02914075 0.23559871 -0.061355267
000050 48 b3 9c bd d5 6d a5 3d 6b b4 df 3d ab 1d 1a 3e
       -0.07651383 0.080775894 0.10923084 0.1505038
000060 d0 5a 96 bd 26 21 db bc fc cf 27 be b4 20 40 3e
       -0.0734154 -0.026749205 -0.16387933 0.18762475
000070 c8 4c ff 3d 57 81 4a be fe 27 42 3c 7f 4b 68 3e
       0.12465817 -0.19775902 0.011850355 0.2268505
000080 d0 37 83 3d 95 33 13 be ba a3 f7 bd 0a e5 07 be
       0.0640713 -0.14375146 -0.12091775 -0.13270965
000090 c6 64 17 3d 8c 7e 69 3e 07 4e 34 3d 5b 00 80 be
       0.03696134 0.2280218 0.044019725 -0.2500027
0000a0 d0 2e 55 3a 88 42 8e 3d 06 55 12 3d 66 4b 5f 3e
       0.0008132281 0.069462836 0.035725616 0.21806106
0000b0 53 d5 37 be 1b 13 16 3d 7f 83 b2 bd 61 79 8f bd
       -0.1795247 0.036639314 -0.08716487 -0.07005573
0000c0 32 20 74 3e 22 22 a2 bd 05 20 2c be bf 59 1d 3c
       0.23840407 -0.079166666 -0.1680909 0.009603917
0000d0 19 c3 74 be 9d d0 05 be da f2 48 bd 9a 02 2c 3e
       -0.23902549 -0.13067861 -0.049059726 0.16797867
0000e0 85 fe 21 3e 91 52 e4 bd d6 8f 1d be 79 47 fe 3d
       0.15819748 -0.11148561 -0.153869 0.12415976
0000f0 50 61 b7 3d 31 3c 8a 3e 72 96 18 3e 52 33 49 3e
       0.08954108 0.26999047 0.1490114 0.19648483
000100 75 11 d2 3d 2e 72 2b be 09 d2 12 3e 71 06 19 3e
       0.10257236 -0.16742775 0.14337935 0.14943863
000110 6f b3 61 bd 36 c1 fb bd 9e 39 90 be f1 ef 68 bd
       -0.05510276 -0.122927114 -0.28168958 -0.05686945
000120 e4 46 28 bc 41 5f 01 bd 26 59 83 3d 62 6d 8e bd
       -0.010270808 -0.03158498 0.06413488 -0.06954457
000130 96 a2 23 3e 99 ec 71 be ad db 9c be 39 f7 7e 3d
       0.1597999 -0.23625411 -0.3063635 0.06224749
000140 5f de 82 bd 6f 21 f6 3d 21 38 05 3d e6 97 0f be
       -0.0639007 0.12018096 0.03252423 -0.14022788
000150 79 8a cc bd f9 70 10 bd 60 76 8e 3d 69 fb 3a be
       -0.09987349 -0.03526399 0.06956172 -0.18259968
000160 38 65 69 be c2 cc 88 3c c8 0a fb 3d e9 48 86 bb
       -0.22792518 0.016699199 0.12257916 -0.004098047
000170 06 15 0f be 0f e9 20 be f9 74 1c bd d3 b1 24 3e
       -0.13972864 -0.15713905 -0.03819749 0.1608346
000180 44 c8 f6 3d 25 b5 44 3d f4 66 59 be b2 73 4e be
       0.120499164 0.048024315 -0.2123068 -0.20161322
000190 81 12 2f 39 ed b5 d7 3d b9 b1 b0 bd 44 85 1f be
       0.00016696194 0.105327465 -0.08627648 -0.1557818
0001a0 a6 46 b0 3d 59 35 97 bd 39 3e af 3d 76 ef 2d 3e
       0.08607225 -0.07383222 0.0855679 0.16985878
0001b0 4a 82 1b 3e 20 8e 4a 3c e6 5e 2c 3c 6c 7b 43 3d
       0.1518642 0.012362987 0.010520672 0.047725126
0001c0 4d 44 e8 bd 26 84 c0 bc 41 db 5c bd 9c 4e 14 be
       -0.11341152 -0.023500513 -0.053920034 -0.14483112
0001d0 d4 a4 24 bd 66 6b 8a bb de 15 06 3f da 0e 08 bd
       -0.040196255 -0.0042242287 0.52377117 -0.03321729
0001e0 f2 c2 dd bb a7 dc eb bc 89 49 09 3e 97 b2 bb 3e
       -0.006767624 -0.028791739 0.13406958 0.3665969
0001f0 3a 14 0f 3e d3 73 9b be b0 e8 4f bd 4f f4 46 be
       0.1397256 -0.30361804 -0.050759017 -0.19429134
000200 95 b8 3d be c1 51 7e be 3d 71 ca 3c a4 ee 0d be
       -0.18527444 -0.24835874 0.0247122 -0.13860565
000210 5c b8 fe 3b 9d b4 a7 bd e7 85 f7 3d ff af 93 bd
       0.007773442 -0.08188746 0.12086087 -0.07211303
000220 0e d8 39 bd 6e f8 85 3b e3 04 d9 3d 75 ac 5d 3e
       -0.04537206 0.004088453 0.10596635 0.21647818
000230 c7 a9 52 3b 67 3b fa 3d 76 6a 3e 3d 4a 20 5c 3d
       0.0032144652 0.12218361 0.046488248 0.05374173
000240 c2 18 b3 ba 73 13 eb bd 0b cc 15 3d 06 a5 88 3d
       -0.0013663995 -0.11478319 0.036571544 0.06672101
000250 5a 3d 9c 3d e0 6a 9a 3d
       0.076288894 0.07539916
