pytorch_LeNet5/parameters_standard/conv3_weight.npy (npy, 192128 bytes, 1 tensors)

array f4 [120, 16, 5, 5]
00000000: 9350 853c f227 413d 0836 6fbc ae5a 3fbd
00000010: 3881 ecbc a7aa aebd d539 7bbb 1d12 20bd
00000020: c488 eebd 752e 22bd 27ba 853d 7b12 33bd
00000030: 82a2 653d 215c 333a f182 de3d d2cd 823a
00000040: f7b2 1cbd 6038 20bd 1032 44bd 4554 1f3d
00000050: 3870 97bd 7016 abbd d99a 8abd df5c e33b
00000060: 236f 2a3d 3ba0 d63d 2a32 c3bc 5587 923d
00000070: c4b9 9a3c 0eca 1b3d 865f 043c 32d9 653d
00000080: 1920 303d 7c3b d63d 963f 55bd 85d6 bdbc
00000090: b038 a9bd 7f8e d43c 4d6b e13c 0d61 32bd
000000a0: 48c4 e9bd 60ee e7bb 66a3 ddbd 4653 c13d
000000b0: 5215 febc cec9 01bc f1d3 8f3c afde c33d
000000c0: ef0b 2d3e 4288 af3d 9045 18bd cab2 6b3d
000000d0: c9a2 79bd e012 06bd f5d3 bcbd 8d8b 89bd
000000e0: 093b 45bc 9a0e c9bd 34c6 28be 2d72 24be
000000f0: ebef f2bc a0d3 d9bd 919b cebd a019 d6bd
00000100: ba30 c7bd f57c e4bd 7eaa a7bd 841e 9b3d
00000110: b481 0bbd 065c 96bd 98e7 cebd 2a0c 133d
00000120: 3864 a2bd a3d7 f8bc b443 bc3d f7d3 66bd
00000130: 5fdd ab3d 11c8 31bd bdba 6dbd da2b 00be
00000140: 68d2 84bd 6791 073d 3702 bb3d 21e2 2d3d
00000150: f619 113e ef71 1ebd 4e4f 4a3d 4f18 d73b
00000160: 82a4 b2bd 587b 383d 4ab5 623c 4ad2 733d
00000170: 2921 d13b 1493 d1bd b239 223d 316f 45bd
00000180: 4cd8 463b 556a 07be cbc9 45b9 42fe 9fbb
00000190: f46c d43a 3e14 7a3c 75e9 7b3c c36f d03d
000001a0: 54a4 b4bd 41dc 66bd 40af 8b3d f069 823d
000001b0: 0ab1 763d 85c0 cc3c 9663 40bc 58c9 2bba
000001c0: a1ae 23bd 9d11 6e3c 5b30 5e3d 79e6 08be
000001d0: 4e0e 59bd 5042 e33d 3bcc 903d 30e3 b03c
000001e0: cac5 043d 72b0 073e 8252 033d ed6b bf3d
000001f0: 71e3 45bb 7f7b 5e3d eddf edbc 2201 303d
00000200: 9b37 5b3d b3f9 253c 5bd8 46bd 357a 06bd
00000210: 586b 5ebd 4c7e 61bd ef07 84bd 892b 2ebd
00000220: c246 793c 5331 53bd 4ae7 acbd 8e8a 183c
00000230: daaa 1f3d 6967 83bd 0cae 29bc 36c4 333d
00000240: 5e09 403e eab4 ad3d b3f8 18bd 8cbc 36be
00000250: 2eda a3bd b442 d9bc 9145 56bd f758 ac3d
00000260: 583b db3d b894 2e3e 349d fc3c a113 d23b
00000270: 0cdb f93d 804e b53d 0eaf 9ebd d7eb dabd
00000280: 231a ce3d 2582 9e3d ff2a c73c 8af7 89bd
00000290: 5cfb 45bd 7250 52bc 5a2b a7bd b7de b7bd
000002a0: 71d9 1bbe 5b8a aabd bbc6 57bd fa82 c4bd
000002b0: 7c83 f1bd 91a3 bfbd 9c73 9a3c d8eb 9dbd
000002c0: 624b 1a3d 6c32 d43d 5455 d63b 37dc 48bd
000002d0: 1402 553d 44d4 4cbc 3fa6 0c3e bdc7 5d3d
000002e0: e20a 94bd 2b1d b3bb 87f7 3e3d a93a e9bb
000002f0: ecdb 91bd a99c 99bc 7ebd 0d3d 4325 de3d
00000300: ae96 89bd d3c4 813d 4e10 8c3d 72df ca3c
00000310: 51df f5bc dca6 e73b bfdf b5bd ad2d e43c
00000320: 1bd8 cd3c 752a d33d 1089 db3d 75ef adbc
00000330: 7081 473c 0a19 873d 3793 a6bc c84c 703d
00000340: 0c28 8c3c 6bd4 08bd a169 99bd 2091 7d3d
00000350: cc7c 0b3e 0022 9dbd 5549 f3bc f3e6 93bd
00000360: b0c2 853d 0bf1 c23d 9798 8fbd 492a b6bd
00000370: 84e1 cbbb 1bb6 153e d34e 133d b543 b5bd
00000380: 1629 56bd 9dc1 633d 1383 1e3c 881b 32bd
00000390: ff96 963d 2a26 a13c 601d 2cbe 72ca b1bd
000003a0: 4aa8 9ebd bd9d 8cbd fe3e b4bd a3d4 f83c
000003b0: 127c 043d 57ba b5bc a5b0 f9bc 03d0 c7bb
000003c0: 79b7 a83d 8068 a13d 8ff9 703c e6de 903d
000003d0: 2aaf 083c d1b3 71bd b375 413c a5ba 07be
000003e0: 6f80 dabd 0bbe ddbc 8c0e 2b3c 03ff a33d
000003f0: a71f b43c d224 443d 5206 85bc 0adf 16be
0.016273772 0.047157235 -0.014600284 -0.04671734 -0.02887021 -0.08528643 -0.003833403 -0.039079774
-0.1164718 -0.039595086 0.06529646 -0.043718796 0.056063183 0.00068420364 0.10864819 0.0009979552
-0.03825661 -0.039116263 -0.047899306 0.038898725 -0.07394451 -0.08353889 -0.06767816 0.0069385613
0.041609894 0.1047978 -0.023827631 0.07154719 0.018887408 0.03803449 0.008079415 0.056115337
0.04299936 0.104605645 -0.052062593 -0.02317358 -0.082627654 0.025946854 0.027516985 -0.043549586
-0.11414391 -0.007077977 -0.108221814 0.09439711 -0.031016026 -0.007921649 0.017557116 0.09563958
0.16899084 0.08570911 -0.037175715 0.057543553 -0.06094626 -0.032732844 -0.09220115 -0.0671607
-0.012038001 -0.09817238 -0.16481858 -0.1605918 -0.029655417 -0.106360674 -0.10088266 -0.10454106
-0.09726091 -0.11156646 -0.08186816 0.0757418 -0.03405924 -0.07341771 -0.10102767 0.035900272
-0.079292715 -0.030376261 0.09192601 -0.05635449 0.083918326 -0.04340369 -0.058039416 -0.12516728
-0.06485444 0.03309765 0.09131282 0.04245198 0.1417006 -0.038682874 0.049392037 0.006564177
-0.087227836 0.045039505 0.013837168 0.05952672 0.006382127 -0.10233131 0.039605804 -0.048201744
0.0030341325 -0.13224156 -0.00018862558 -0.004882605 0.0016206787 0.015263615 0.015375485 0.10177567
-0.088204056 -0.056362394 0.06820536 0.06367862 0.06022743 0.024994144 -0.011742493 -0.0006553135
-0.03996146 0.0145305665 0.054245334 -0.13369168 -0.052992158 0.110966325 0.07070204 0.021592706
0.03241519 0.13250902 0.032061107 0.09346757 -0.003019538 0.054316994 -0.02903744 0.04296983
0.053519826 0.010130334 -0.048546176 -0.03283139 -0.05430159 -0.055052087 -0.06446826 -0.042521987
0.015214624 -0.05156071 -0.084425524 0.009310378 0.038981296 -0.06416208 -0.010356437 0.043888293
0.18753573 0.08481772 -0.037346553 -0.17845362 -0.08000599 -0.026521064 -0.052312437 0.08415406
0.10704678 0.17048919 0.030836679 0.0064110314 0.12199983 0.08852863 -0.07748233 -0.10689514
0.10063579 0.07739667 0.024312494 -0.067366675 -0.048335418 -0.0128365625 -0.081625655 -0.08978026
-0.15219666 -0.083271705 -0.05267976 -0.09595294 -0.11792657 -0.0935737 0.018853955 -0.07710999
0.037669547 0.1036118 0.0065409336 -0.04903814 0.052003935 -0.01250178 0.13735293 0.054145563
-0.07228638 -0.0054661236 0.04662278 -0.0071175885 -0.07122025 -0.01875146 0.034604542 0.10846951
-0.06718193 0.06336369 0.06839047 0.02476475 -0.030013712 0.0070694517 -0.08880567 0.027853811
0.025127461 0.103108324 0.10719502 -0.021232346 0.012176856 0.06596573 -0.02033387 0.058666974
0.01710894 -0.033405703 -0.0749085 0.06190598 0.13621825 -0.076725006 -0.029698053 -0.072217844
0.06531274 0.095186315 -0.07011526 -0.08894784 -0.006221952 0.14620249 0.035963845 -0.08850805
-0.052285276 0.055604566 0.009674805 -0.043483287 0.07353019 0.019671518 -0.1680808 -0.086811915
-0.07746942 -0.06866024 -0.08801077 0.03037483 0.032344885 -0.02218358 -0.030479738 -0.006097795
0.0823812 0.0788126 0.014707937 0.070737645 0.008342544 -0.059009377 0.011807847 -0.13254793
-0.10669028 -0.027068159 0.01044048 0.08007624 0.02198775 0.047886677 -0.016238365 -0.1473352
