pytorch_LeNet5/parameters_standard/fc1_weight.npy (npy, 192128 bytes, 1 tensors)

array f4 [120, 400]
-0.11104853 -0.1087159 -0.13215987 -0.014700485 0.06562128 -0.08898114 0.010710608 0.013857466
-0.10114044 0.16531976 0.028831135 0.0639352 0.062372707 0.06806803 0.12787859 0.007137907
0.029790498 0.13628855 -0.005291324 0.035121758 -0.011748731 -0.009612379 0.009029534 -0.05338043
0.013301518 -0.16596268 -0.23424308 -0.11097772 0.061897673 -0.023263175 -0.09883185 -0.09851589
0.038952906 0.0756819 0.046352368 -0.08652246 0.079249606 0.026320076 -0.009455686 -0.07080702
0.028260145 0.1251103 0.053131983 0.012911875 0.06292791 -0.0005477034 -0.017715445 -0.063517906
-0.09688028 0.009245788 -0.106765285 0.032507837 0.017704476 -0.08173697 -0.09693768 0.018036392
0.1267156 -0.032405168 -0.054535225 -0.07547497 0.026293367 0.013814611 -0.019253103 -0.043680765
0.05256655 0.09238599 -0.054989226 -0.02664096 0.11783417 0.051310662 0.104036145 -0.006044344
0.08054525 0.02649752 -0.14626332 -0.07341284 -0.050690237 -0.083657466 -0.035020273 -0.0076059382
-0.010133463 -0.0032782773 -0.03363067 0.085080065 0.08237263 -0.010939262 -0.047235847 0.0959472
0.010966742 -0.03491514 0.0734746 0.027734127 0.10834037 -0.0428971 -0.14174767 -0.0097456435
-0.14280537 0.008716557 -0.015449606 -0.030005159 -0.07711074 -0.018458756 -0.040414806 0.07235766
-0.048936475 0.008992202 -0.10028517 0.07442766 -0.04705522 0.13326408 0.080357015 0.04322962
-0.0029150296 -0.043995358 -0.07784098 0.014686969 -0.10378084 -0.040013205 -0.08276274 -0.1298548
-0.08912648 -0.0025303091 0.022795266 0.13071725 0.014324425 0.089429274 0.008386512 0.118291155
0.007046924 -0.08901423 0.02160745 0.0095603 0.09388905 0.0016358726 -0.12797564 -0.04096359
-0.040641915 -0.1450766 0.0076881787 -0.055577826 0.020606233 0.0016937432 0.014833544 -0.00035987629
-0.023388673 0.028703157 0.009336585 -0.06212232 0.13928634 0.09014784 -0.07270913 -0.070973404
0.001110989 0.05720416 0.11644847 -0.057796493 -0.009594729 0.04650545 -0.03133207 0.08011451
0.0059103933 0.11209101 0.019004624 0.020622551 -0.014133115 0.002964571 -0.02707405 -0.01307412
-0.035779268 0.03089319 -0.06461932 -0.14530864 -0.012150556 -0.072419114 -0.06862615 -0.09646671
0.11279385 0.008227788 -0.10608336 -0.080433495 -0.023375569 0.06573111 -0.011026512 0.08295631
0.017943164 -0.13675548 0.02139509 -0.030644683 0.11835011 0.06602017 -0.026079906 0.020551689
0.16184366 -0.047071714 -0.049827192 0.22079249 0.13202262 0.16261426 -0.013458467 0.045739315
-0.06756866 -0.17124632 -0.011028615 -0.031222695 0.0019322196 -0.008697996 0.06562956 0.016661093
-0.024288636 0.0060924753 0.08468678 0.056606468 -0.03863522 -0.017705915 -0.099126905 0.008532611
0.10431969 0.022298254 0.07409292 -7.9728015e-06 -0.0252938 0.03206376 -0.001470333 -0.033849932
0.008435704 -0.0026134169 -0.03614219 -0.15663902 -0.106310904 -0.0679136 0.0971258 0.020550832
-0.067565896 0.090527035 -0.097699985 -0.06509943 -0.0076107737 -0.01937411 -0.032803252 0.0052665835
0.04249038 0.04007732 0.06194389 -0.012097977 -0.029891549 -0.1313437 -0.02271765 0.0654298
0.0067431927 -0.0026858596 0.19850762 0.06754895 -0.13246109 -0.11095285 -0.07154087 0.09062221
00000000: 696d e3bd 71a6 debd eb54 07be 4eda 70bc
00000010: 7364 863d be3b b6bd 8c7b 2f3c 6d0a 633c
00000020: b822 cfbd 9549 293e 462f ec3c 75f0 823d
00000030: 867a 7f3d 4067 8b3d 9bf2 023e 1be5 e93b
00000040: 340b f43c 3a8f 0b3e d862 adbb d5db 0f3d
00000050: c07d 40bc 3d7d 1dbc 9cf0 133c 70a5 5abd
00000060: 9cee 593c 1ff2 29be 6bdd 6fbe 4948 e3bd
00000070: 6a88 7d3d 6a92 bebc 5a68 cabd b3c2 c9bd
00000080: 158d 1f3d 1dff 9a3d fbdb 3d3d b032 b1bd
00000090: 9e4d a23d 339d d73c 06ec 1abc 4503 91bd
000000a0: d281 e73c ea1c 003e eca0 593d 548c 533c
000000b0: 59e0 803d c193 0fba fb1f 91bc ad15 82bd
000000c0: 2b69 c6bd a57b 173c c2a7 dabd f026 053d
000000d0: fa08 913c b665 a7bd 4387 c6bd 0ec1 933c
000000e0: bcc1 013e 48bb 04bd 5460 5fbd 9f92 9abd
000000f0: 3065 d73c ae56 623c afb8 9dbc 9aea 32bd
00000100: 0650 573d de34 bd3d 623c 61bd 243e dabc
00000110: 0b53 f13d 212b 523d e710 d53d a20f c6bb
00000120: e8f4 a43d 5411 d93c 0dc6 15be 7959 96bd
00000130: 91a0 4fbd 9b54 abbd 6b71 0fbd 3c3b f9bb
00000140: d306 26bc 5ed8 56bb 50c0 09bd 753e ae3d
00000150: fbb2 a83d 973a 33bc 607a 41bd f77f c43d
00000160: daad 333c 2e03 0fbd da79 963d ae32 e33c
00000170: 8ee1 dd3d dfb4 2fbd 4d26 11be 31ac 1fbc
00000180: 923b 12be e4cf 0e3c 5820 7dbc 61cd f5bc
00000190: 3cec 9dbd d136 97bc ff89 25bd 4130 943d
000001a0: 9d71 48bd 0754 133c 5062 cdbd 876d 983d
000001b0: f9bc 40bd 6176 083e 3892 a43d 8b11 313d
000001c0: 150a 3fbb 7a34 34bd 176b 9fbd 9da1 703c
000001d0: 0d8b d4bd e3e4 23bd 837f a9bd a8f8 04be
000001e0: f287 b6bd 8bd3 25bb 23bd ba3c beda 053e
000001f0: feb0 6a3c b226 b73d 9567 093c a242 f23d
00000200: e2e9 e63b 184d b6bd 1b02 b13c cea2 1c3c
00000210: e748 c03d c76a d63a 0c0c 03be 70c9 27bd
00000220: 2378 26bd f68e 14be 1eed fb3b 93a5 63bd
00000230: 67ce a83c 9700 de3a 6508 733c c7ad bcb9
00000240: 9a99 bfbc e222 eb3c 7af8 183c f973 7ebd
00000250: 14a1 0e3e 6e9f b83d 86e8 94bd 815a 91bd
00000260: 9b9e 913a e94e 6a3d 897c ee3d 04bc 6cbd
00000270: 3633 1dbc 807c 3e3d 0e56 00bd 1413 a43d
00000280: f9ab c13b f98f e53d 96af 9b3c a0f0 a83c
00000290: 958e 67bc 3f49 423b 66ca ddbc d534 56bc
000002a0: 488d 12bd b713 fd3c 2257 84bd cacb 14be
000002b0: 2013 47bc 7950 94bd de8b 8cbd 5790 c5bd
000002c0: 7600 e73d d8cd 063c 3c42 d9bd 51ba a4bd
000002d0: 1f7e bfbc 089e 863d 8ba8 34bc ffe4 a93d
000002e0: 8bfd 923c a109 0cbe c144 af3c 8f0a fbbc
000002f0: 8b61 f23d 9535 873d 87a5 d5bc 045c a83c
00000300: 58ba 253e 45ce 40bd 9917 4cbd 6d17 623e
00000310: f030 073e 5a84 263e e780 5cbc 2659 3b3d
00000320: 7061 8abd 325b 2fbe 5db1 34bc bdc6 ffbc
00000330: 8842 fd3a 0a82 0ebc ca68 863d d87c 883c
00000340: f6f8 c6bc 63a3 c73b 4370 ad3d 2fdc 673d
00000350: f73f 1ebd ff0b 91bc 0c03 cbbd 5dcc 0b3c
00000360: 90a5 d53d d4aa b63c 07be 973d ecc2 05b7
00000370: f134 cfbc 4a55 033d 30b8 c0ba 3aa6 0abd
00000380: e835 0a3c dc45 2bbb d509 14bd fb65 20be
00000390: 88b9 d9bd 4916 8bbd e4e9 c63d 385a a83c
000003a0: fd5f 8abd 3d66 b93d ee16 c8bd da52 85bd
000003b0: cc63 f9bb 74b6 9ebc b45c 06bd 4e93 ac3b
000003c0: 650a 2e3d 1e28 243d e0b8 7d3d 9836 46bc
000003d0: 1fdf f4bc f77e 06be 5d1a babc 0f00 863d
000003e0: 00f6 dc3b 3f05 30bb 9545 4b3e 1b57 8a3d
000003f0: e1a3 07be 3f3b e3bd 0584 92bd 2398 b93d
