pytorch_LeNet5/parameters_standard/fc1_bias.npy (npy, 608 bytes, 1 tensors)

array f4 [120]
00000000: 01e6 9d3c fc73 673c 0e3e 04bd 0e9a a0bc
00000010: 2267 8cbc c42f 87bb ae24 213d 712c a9bc
00000020: bc1b d8bc 0df0 1e3d a79a 30bd ae01 84bc
00000030: 873e 293d 8b2b 8d3c 814b 9abc 40ef 56bb
00000040: fae5 0ebd 1426 c03c dfb5 ba3c 65ae 293d
00000050: d5b2 783a 4a68 823c 537a 35bd 5dda 1abd
00000060: b599 4ebd ef15 0a3c bb70 10bd 8feb 193d
00000070: eca5 c3bc f640 ecbb e784 37bd be4a bc3a
00000080: a08a e83b c1f2 403c dde4 323d 5360 af3c
00000090: 0602 23bd ba80 3abd b067 edba f588 5abc
000000a0: cd55 9dbc a796 463c 8b8e 30bd a02a 1d3d
000000b0: f8f8 f3bc 8bdf 043c 81f7 a0bb a0b9 973b
000000c0: 7789 353d 353c 9fbc 3541 e63c bd5c 5bbc
000000d0: c2cb b73c d6d8 863b 9608 863c d361 993c
000000e0: cc55 4c3d bc54 e23c 69af 1c3d 66c9 d5bc
000000f0: aa3c 25bd 108f 5ebd 50e0 283d a002 84bc
00000100: 712e 063d d09b 023d 4d36 2bbd 8aef be3c
00000110: 4f3f 2b3d 5570 a73c 4c12 65bc 6049 d23c
00000120: 0673 f53c 44e8 b2bb b930 973c 0d14 05bd
00000130: b0d4 3c3c 1867 1e3d d168 333d a993 0bbd
00000140: 6736 863c 315b 7ebc dbef 1fbd 853e 5b3c
00000150: f9dc cf3b a31d cabc 2ecb 0fbd 0c26 06bd
00000160: 50d5 293d 0245 3abd 116d 6dbc 4f8e 1d3d
00000170: af8e ca3c 5118 24bd 7fa1 253d da2a ccbb
00000180: 5419 d3bc e7a8 67bc 5945 a2ba 8688 263c
00000190: a53a 3b3d f474 433c baf1 2d3c 1b5b 453d
000001a0: 0cce 75bb 785c 253d 5841 4b3c 6fd6 a63b
000001b0: 2235 1fbd b089 093c 5efc 283d e941 32bc
000001c0: 7c46 fbbc 5a67 053d 7184 16bd cae9 04bc
000001d0: eb58 bfbc 94b0 cfbb bec1 1dbd 73b2 333c
0.019274713 0.014126774 -0.032285742 -0.019604709 -0.017139021 -0.004125567 0.03934162 -0.020651074
-0.026380412 0.03880315 -0.043116238 -0.016114082 0.041319396 0.017232677 -0.018834831 -0.0032796413
-0.03488729 0.023455657 0.022791801 0.04142608 0.0009487097 0.01591887 -0.04430611 -0.037805904
-0.050439555 0.008428081 -0.03526376 0.03757816 -0.023882829 -0.0072098924 -0.04480448 0.0014365537
0.0070966035 0.011776627 0.043675292 0.021408236 -0.03979685 -0.04553292 -0.0018112566 -0.013338317
-0.019205952 0.012120879 -0.04310469 0.03837073 -0.029781803 0.008109937 -0.0049123173 0.0046302825
0.04432055 -0.019437889 0.028107265 -0.01338881 0.022436026 0.0041152043 0.016361516 0.018723404
0.04988651 0.027628295 0.03825322 -0.02609701 -0.040341057 -0.054335654 0.041229546 -0.016114533
0.032759134 0.031886876 -0.041799832 0.02330758 0.041808423 0.020439306 -0.013981413 0.025669754
0.029962074 -0.005459817 0.01845585 -0.032489825 0.011525318 0.038672537 0.043801133 -0.034076367
0.016383363 -0.015524671 -0.039047103 0.013381605 0.0063434807 -0.024672335 -0.035105877 -0.032751128
0.041463196 -0.045475967 -0.0144913355 0.038465794 0.02472624 -0.040062252 0.040437218 -0.0062306942
-0.025768913 -0.014139391 -0.0012380286 0.010164386 0.045710225 0.011929739 0.010616714 0.048182588
-0.0037506847 0.04037139 0.012405716 0.0050914804 -0.03886903 0.008394644 0.0412563 -0.010879972
-0.030673258 0.032569267 -0.0367474 -0.00811238 -0.02335783 -0.0063381884 -0.038514845 0.010967839
