pytorch_LeNet5/parameters_standard/fc2_bias.npy (npy, 464 bytes, 1 tensors)

array f4 [84]
0	0xbd84da3d	-0.06486938
1	0x3da3cb24	0.079977304
2	0xbdb509ad	-0.08839736
3	0x3d664234	0.05621548
4	0x3db3580d	0.08757029
5	0xbd8eff75	-0.06982318
6	0x3da6fe4c	0.08153972
7	0xbd45eaef	-0.048319753
8	0xbdbd6392	-0.09247507
9	0x3c5db47d	0.013531801
10	0xbd9a2e0c	-0.07528314
11	0x3d853e54	0.06506029
12	0x3cca7cb9	0.024717676
13	0xbd08bbb6	-0.03338214
14	0x3d44a40c	0.04800801
15	0x3da003f2	0.078132525
16	0xbc0d2ffa	-0.008617396
17	0xbda01473	-0.078164004
18	0x3d2b7da8	0.041867882
19	0x3da0bb5c	0.07848236
20	0x3cc2f818	0.023799941
21	0xbc5785cf	-0.013154461
22	0xbd2ea4d4	-0.04263766
23	0x3d8f9e2d	0.070125915
24	0xbd4a77f7	-0.049430814
25	0x3d52fcd2	0.05151064
26	0x3d8042a5	0.062627114
27	0x3b89e3e5	0.0042080753
28	0xbd654361	-0.05597246
29	0x3d8047f5	0.06263725
30	0x3dbd65ca	0.0924793
31	0xbccc6060	-0.024948299
32	0x3d592a5a	0.053018905
33	0xbd307fa5	-0.04309048
34	0xbd6325bd	-0.055455912
35	0xbd9c70aa	-0.076386765
36	0xbd938174	-0.072024256
37	0x3cb13e80	0.021636248
38	0x3d5b5ddc	0.05355631
39	0x3d938b04	0.072042495
40	0xbd7d5dc1	-0.06185699
41	0xbd2e7a8b	-0.042597335
42	0x3d805789	0.06266696
43	0xbd26ad5f	-0.040692683
44	0x3c95f3ad	0.01830467
45	0x3d2a9fa1	0.04165614
46	0x3d4190ad	0.047257114
47	0xbd82c996	-0.06386106
48	0x3da9f2b8	0.08298248
49	0xbd92b07c	-0.07162568
50	0x3b87f350	0.004148878
51	0x3cc52158	0.024063751
52	0xbd73b9db	-0.059503417
53	0x3d82aa19	0.063801
54	0x3dac18ed	0.08403192
55	0xbda73939	-0.08165211
56	0xbb98334a	-0.004644786
57	0xbd680e98	-0.056654543
58	0x3db13b3e	0.08653878
59	0x3cd5f2f8	0.026116833
60	0x3d9cddaf	0.0765947
61	0x3d93c6e2	0.07215668
62	0xbdb414c9	-0.08793027
63	0xbd967753	-0.07346978
64	0x3d99f348	0.07517105
65	0xbd48ed64	-0.04905452
66	0xbda053a0	-0.0782845
67	0xbd5e9e25	-0.054350037
68	0xbd3a8ded	-0.045545507
69	0x3da8088b	0.082047544
70	0xbd090b20	-0.033457875
71	0x3b0ba82f	0.0021309962
72	0x3d4991d7	0.04921135
73	0xbd7580f9	-0.05993745
74	0x3d1708a2	0.036873467
75	0xbcef9e33	-0.02925024
76	0x3d93e7db	0.07221957
77	0x3d5aacf6	0.053387605
78	0xbda55445	-0.08072714
79	0xbbea5c20	-0.0071520954
80	0xbd93c970	-0.072161555
81	0x3d29b486	0.041431926
82	0xbce16bfb	-0.02751731
83	0xbd0a2919	-0.0337306
