pytorch_LeNet5/parameters_standard/fc2_weight.npy (npy, 40448 bytes, 1 tensors)

array f4 [84, 120]
000000 a5 fd 29 3d 5c 5d 9b bd 33 44 ae bd 70 82 e2 3d
       0.04150166 -0.07586166 -0.08509102 0.11060035
000010 21 8a 0b 3d 92 e0 fb 3d 44 3b 25 3c 2b 2b 27 3d
       0.034067277 0.12298693 0.010084931 0.040812653
000020 c1 0c b1 bd d9 ca 82 3d ad df 91 bd 7c 2b a5 bd
       -0.08645011 0.06386346 -0.07122741 -0.080649346
000030 9b e9 5a bd 2d c4 c0 bd bb 7e 1f 3a 17 fc 86 bd
       -0.05344544 -0.094124176 0.0006084253 -0.06591051
000040 52 32 86 3d 2e 6e 50 bd 78 44 fd 3d 6c 5a e1 3c
       0.065525666 -0.050886326 0.12366575 0.027508937
000050 ca 9d de 3c 62 29 15 be 22 ad 30 be ed 5a 88 3d
       0.027174849 -0.14566568 -0.17253545 0.06657968
000060 b6 dd 63 bc 3e 39 42 bd cc 48 9b bc 17 bf 7d 3d
       -0.0139078405 -0.04741787 -0.01895561 0.061949816
000070 71 38 17 3e e6 1a d9 bd ea ee d4 bc 5c 7b 07 3e
       0.14767624 -0.106008336 -0.02599283 0.13230652
000080 d6 ce ce bd d5 e9 2f bd eb ff df 3d fb 8b 49 3d
       -0.100980446 -0.04294761 0.10937484 0.04920576
000090 75 81 21 3d c4 7e e7 3d 15 52 fa bd 46 0e ae 3d
       0.0394301 0.113034755 -0.12222687 0.08498816
0000a0 c5 7b 18 bc e1 6b 42 3c a9 d9 f8 bc 58 b0 76 bd
       -0.009306853 0.011866541 -0.030377226 -0.06022677
0000b0 63 ed aa bc 69 cd 87 3d 63 e1 c7 bd 8f 34 a4 3d
       -0.020865148 0.06630976 -0.09759786 0.08017837
0000c0 e8 a7 a1 bc 96 18 df 3c 54 72 d6 bd bd bd 83 bd
       -0.019733384 0.027233403 -0.10471025 -0.06432674
0000d0 1c 63 8b 3d e4 a5 87 3b 0d 8f f2 bd ab 3f f7 3d
       0.06806013 0.0041396488 -0.11843691 0.120726906
0000e0 06 3c 03 3e e8 1f 02 3e 01 83 f5 3d 91 69 2b 3d
       0.12815866 0.12707484 0.11987878 0.041848723
0000f0 78 ea b0 3c 65 33 de 3d 00 e2 4c bd c4 c6 ba bd
       0.021596178 0.108496465 -0.050020218 -0.09119943
000100 7b 92 50 3d e2 22 45 bd 5a 84 83 3d c4 b9 0f bb
       0.050920945 -0.04812897 0.064217284 -0.0021930793
000110 e0 6d f1 3d 1a 2c 82 bd 50 5d 14 3d 36 39 a4 bc
       0.11788535 -0.06356068 0.036221802 -0.020046812
000120 c8 b9 63 3d a7 9e af bd ae 09 2e 3e 26 e4 2c be
       0.055597097 -0.085751824 0.1699588 -0.16883907
000130 19 6c 21 be 51 ec 92 3d 25 4a ac 3d 46 25 5e 3b
       -0.15763892 0.0717398 0.084125794 0.0033896728
000140 08 b8 c5 3b a4 58 b6 3d 88 7c 8a bd 8d c8 c3 bc
       0.006033901 0.089036256 -0.06762034 -0.023899341
000150 d7 54 ec bc cd 79 1e 3d c3 67 4c 3d ba 7d 97 bc
       -0.028849049 0.038690377 0.049903642 -0.018492568
000160 c2 5a 25 be ac 3c 4b be 67 70 0f 3e 67 7e 81 3d
       -0.16147903 -0.19847363 0.14007722 0.063229375
000170 29 55 f0 3d 9d 0f 20 3d aa 83 84 bd bc f0 47 bc
       0.11734993 0.03907739 -0.064704254 -0.012203392
000180 4b e6 c0 3d 80 00 4a 3d 07 0b 26 bd 8b 26 61 ba
       0.09418925 0.049316883 -0.04053786 -0.0008588812
000190 77 62 2a bd d3 bb 0c be 86 0b f5 3c 85 c5 32 b9
       -0.04159781 -0.13743524 0.029912721 -0.00017048985
0001a0 27 cf a9 3d 84 e1 87 bd 0b 43 c6 3c a3 16 bf 3d
       0.08291464 -0.066348106 0.02420189 0.093304895
0001b0 af f2 4c bd bf 8b 31 3d 92 d5 c1 3d 73 25 20 3e
       -0.05003613 0.043346163 0.094645634 0.15639286
0001c0 85 7b df 3d 6e 8a 6d 3d fe 2f aa 3d 13 4d 46 bd
       0.10912231 0.057993345 0.08309935 -0.048413347
0001d0 c7 a6 f0 bd a4 e6 b1 bc ab 4c b9 3c da 6c d4 3d
       -0.1175056 -0.021716423 0.022619566 0.10372324
0001e0 de c4 b2 3c 51 1e 1b 3d 3f 36 05 3d 34 2b 84 bd
       0.02182239 0.03787071 0.032522436 -0.06453553
0001f0 eb 1b c9 3c da 01 28 bd 4a 5e fc bd 81 65 4a 3e
       0.024549445 -0.04101739 -0.12322672 0.19765283
000200 83 fe 22 bd 82 c3 22 bd 12 4c 60 3c ce 5c 1d 3e
       -0.039793503 -0.039737232 0.013690012 0.15367433
000210 05 29 b9 3c cf e2 e7 3d 0f bb 91 3d 74 f4 fd 3d
       0.022602567 0.11322557 0.07115757 0.12400141
000220 96 41 a5 bd 0c 14 0c be 11 c9 19 3d 39 7d d5 bd
       -0.0806915 -0.13679522 0.037545267 -0.10424275
000230 35 07 60 3d 76 3e eb bd f5 79 d9 3d 3f f8 31 be
       0.054694373 -0.11486523 0.106189646 -0.17379855
000240 bf 4d c6 3c bf ff 04 3d 41 a3 2a 3e 93 d1 bc bd
       0.024206994 0.03247046 0.16663839 -0.092196606
000250 e8 f9 55 bc db 03 93 bd b1 0c 48 bc 1d 1b 7f bd
       -0.013060071 -0.0717847 -0.012210057 -0.062281717
000260 22 59 42 3d 3a 50 31 3d 59 45 d5 bc 20 4c 5f 3e
       0.047448285 0.0432894 -0.026034044 0.21806383
000270 2b 74 3f 3d a2 d5 0d be a1 16 8d 3d 1c c9 5b ba
       0.046741646 -0.13851026 0.06889082 -0.00083841546
000280 92 d5 0b 3e ff df 06 be 9c 18 7a 3d 40 e1 91 3c
       0.1365569 -0.13171385 0.061058626 0.017807603
000290 e7 f0 0f 3d a3 e3 b4 bd 69 0e 85 3d 8e a0 39 3d
       0.03514185 -0.08832481 0.06496889 0.045319133
0002a0 76 87 97 3d 7b ea 00 3d 3f b6 97 bd 10 7f 13 bc
       0.07398884 0.031473618 -0.074078076 -0.009002462
0002b0 e2 65 6c 3d 43 9a 97 bc 33 df 76 3d ed 9b 04 bd
       0.05771435 -0.018506175 0.060271453 -0.032375265
0002c0 2e 5b ec bd 2e 63 c0 bd ef 0a 82 3c 20 c1 23 bd
       -0.11540829 -0.09393917 0.015874354 -0.0399791
0002d0 db c4 e1 bc 75 3c c8 3c 08 0d 0f be 7b 79 d4 3d
       -0.027559688 0.02444289 -0.13969815 0.10374733
0002e0 9a 00 16 3d 58 3d 4d 3d ca 61 3b bb fe bc 79 bc
       0.036621667 0.05010733 -0.0028592222 -0.015242813
0002f0 fe c7 27 3a 51 ec cd 3c 6d df 3f be c6 06 2c 3c
       0.00064003456 0.025137099 -0.18737574 0.010499662
000300 8b 07 06 be bc aa 8b 3d c5 9b 11 be a0 46 d4 3d
       -0.13088815 0.068196744 -0.14219578 0.10365033
000310 2e 05 bc 3d b5 06 4c bd cd c6 e3 3d 74 85 37 3d
       0.091806754 -0.049811084 0.111219026 0.044805005
000320 91 11 c6 3d 5a 3a 56 bd f3 24 b7 3d e5 f7 e6 3d
       0.09671319 -0.052301742 0.089425944 0.11277751
000330 a8 66 42 3e f9 50 51 3c df 44 74 bc de 7c 9a 3c
       0.18984473 0.012775653 -0.014908998 0.01885837
000340 a9 63 35 3c c5 ab b6 bb cc 20 ad bd 99 4e 80 bd
       0.011071124 -0.0055746757 -0.08453521 -0.06264991
000350 ef f6 f3 3c 11 82 9f 3c 3f 52 84 3d ea bd 24 3d
       0.029780833 0.0194712 0.06461 0.04022018
000360 8c 62 dd bd 11 25 b0 3d 51 38 0c 3b 36 54 c7 3c
       -0.10809812 0.0860082 0.0021395872 0.024332147
000370 31 be 01 3e ce 63 fa bc 7d 40 99 bd 21 11 3b 3c
       0.12670209 -0.030565169 -0.07483003 0.011417658
000380 7a 6d d4 3d 83 44 67 bd 72 56 86 3d b9 8e ce bc
       0.103724435 -0.056461822 0.06559457 -0.02521454
000390 0b d4 b7 3d ea d9 37 bd 69 1e cb bd 0c 15 c9 bd
       0.08975991 -0.044885553 -0.0991791 -0.098184675
0003a0 6f 9b 75 bd ce e9 fd 3c dd 85 26 3d fd 5e 9e 3d
       -0.059962686 0.030995276 0.040655006 0.07732961
0003b0 7d 75 5a 3d 7c 76 a8 bc 39 41 0f be f0 40 1b 3d
       0.0533347 -0.02056431 -0.13989724 0.037903726
0003c0 e4 43 89 bd a2 22 22 bd 59 4b 40 3c 76 1b 37 3d
       -0.06702402 -0.03958381 0.011736714 0.044703923
0003d0 d2 cc b9 bd f3 51 66 3d cd 22 f0 bd 71 5d 0e 3e
       -0.090722695 0.056230497 -0.11725388 0.13902833
0003e0 ae 58 a9 3d 2b 7a 2e be ed ae 89 3d 33 40 61 3d
       0.082688674 -0.17038791 0.067228176 0.054992866
0003f0 8e ec 07 be 9d 2b bb 3d 60 4d 4a 3d ca 2c 59 3d
       -0.13273832 0.09139178 0.049390197 0.05302123
