pytorch_LeNet5/parameters_standard/fc3_weight.npy (npy, 3488 bytes, 1 tensors)

array f4 [10, 84]
000000 64 d5 85 37 3a 26 75 b7 3c 9b b1 b7 e1 b1 92 b7
       1.5954203e-05 -1.4612038e-05 -2.117233e-05 -1.7487388e-05
000010 16 6d b3 b7 c2 25 02 b8 08 ab ea 37 80 8b c5 b6
       -2.138926e-05 -3.102958e-05 2.7974616e-05 -5.8872974e-06
000020 d3 eb 86 b7 77 20 b3 b7 1b b0 f3 37 e3 2c eb b7
       -1.6083859e-05 -2.135358e-05 2.9049863e-05 -2.8035085e-05
000030 ac 68 f2 b7 f6 5f 8d 37 d2 31 bc b7 09 45 82 b6
       -2.889739e-05 1.6853195e-05 -2.2434546e-05 -3.8823387e-06
000040 59 22 da 37 ad d4 03 b8 46 85 d4 b7 7a 65 d2 b7
       2.600362e-05 -3.1430904e-05 -2.533443e-05 -2.5081205e-05
000050 e3 2a c9 b7 85 97 f4 b7 50 ce 8b b5 ca 85 98 37
       -2.3981038e-05 -2.9157623e-05 -1.0416352e-06 1.8182112e-05
000060 ef b2 08 b8 cf 5d ef 36 5c 16 c2 37 1e 86 2a b8
       -3.259157e-05 7.133676e-06 2.3137014e-05 -4.0656065e-05
000070 89 95 f2 37 aa d7 74 37 d7 6d d9 b7 38 a8 b3 b7
       2.891828e-05 1.45937465e-05 -2.5919564e-05 -2.1416796e-05
000080 18 d1 d2 37 03 e1 cc 37 70 2f a5 37 07 8a 17 b7
       2.5131318e-05 2.4423474e-05 1.9691623e-05 -9.032438e-06
000090 5b 32 c8 36 e5 b9 f4 37 20 24 85 b7 78 62 d9 37
       5.9663266e-06 2.917363e-05 -1.5871658e-05 2.5914269e-05
0000a0 df fe a7 b7 75 65 f0 b7 da c4 6b b7 28 13 8b b7
       -2.0026635e-05 -2.8657474e-05 -1.4052925e-05 -1.6579012e-05
0000b0 f2 a3 30 b8 96 75 25 b8 53 92 a1 37 2f 60 33 b8
       -4.2114356e-05 -3.9448576e-05 1.9260833e-05 -4.2766504e-05
0000c0 18 09 c9 b7 7b 97 c2 b7 69 eb c5 b7 df ee 6f 37
       -2.3965302e-05 -2.319714e-05 -2.3593851e-05 1.4301127e-05
0000d0 c8 9d c1 b4 17 aa 9b b7 29 1b 0e b8 94 a3 2d b8
       -3.6063852e-07 -1.8556644e-05 -3.3880733e-05 -4.139876e-05
0000e0 5b 6c bf b7 4c 15 ea b7 11 a2 dd b7 e7 aa d2 b7
       -2.2819431e-05 -2.790489e-05 -2.6420721e-05 -2.5113533e-05
0000f0 ce ab de b7 50 d1 de b7 c3 db a6 37 a8 3e cf 37
       -2.6544465e-05 -2.6561931e-05 1.9891077e-05 2.47055e-05
000100 97 32 dd b6 05 a3 c7 b7 18 72 85 b7 9e df 84 b7
       -6.5922027e-06 -2.379856e-05 -1.5907965e-05 -1.5839756e-05
000110 2a ba 06 38 49 8d 42 b7 e9 5c 96 37 4e ff 9f b7
       3.212147e-05 -1.1596197e-05 1.7924658e-05 -1.9073163e-05
000120 6c 4c b0 b7 cd 72 c5 37 4b e1 59 b5 05 be 94 b7
       -2.1016422e-05 2.3537688e-05 -8.1166644e-07 -1.773146e-05
000130 3a ce fb 37 01 a4 0d b8 60 70 dc 37 f5 3e ad 37
       3.0017563e-05 -3.376976e-05 2.6278372e-05 2.0652524e-05
000140 0d 36 47 b8 fa 44 a8 b7 88 96 51 b7 01 21 b8 36
       -4.7495636e-05 -2.005928e-05 -1.2492419e-05 5.4874695e-06
000150 fd 9f a4 b7 9e 06 db b7 be ea 1c b8 3e 08 2b b8
       -1.9624824e-05 -2.6109916e-05 -3.741192e-05 -4.0777253e-05
000160 f5 1b 2f b7 f1 8b 8c b7 e1 ac a7 37 12 16 db 37
       -1.0437322e-05 -1.6754466e-05 1.9988454e-05 2.6117112e-05
000170 b3 7a 6d 37 07 e1 63 b7 c6 27 81 36 04 90 4b 37
       1.4154869e-05 -1.3582648e-05 3.84913e-06 1.2133274e-05
000180 99 ca b1 b7 cd ad 04 b8 2b b6 d9 37 ad 40 f0 37
       -2.1194386e-05 -3.1633117e-05 2.5953244e-05 2.8640346e-05
000190 ae e0 29 b8 ac be 4c 37 32 97 c9 b7 81 59 ab b7
       -4.050199e-05 1.2203742e-05 -2.4031473e-05 -2.0426467e-05
0001a0 94 56 e7 37 db 03 4d b7 9a a2 03 38 78 4d f7 b7
       2.7577662e-05 -1.221985e-05 3.138427e-05 -2.9480769e-05
0001b0 5a 27 ff b7 75 39 0b b8 a8 c0 16 b8 b0 dd 70 b7
       -3.0416693e-05 -3.3193694e-05 -3.5942212e-05 -1.435673e-05
0001c0 96 46 17 b7 a2 7c 10 b8 10 a4 c8 36 fe 67 21 37
       -9.016736e-06 -3.444835e-05 5.979564e-06 9.62056e-06
0001d0 3d e3 2f b6 5e ce e6 37 52 e9 1e b8 21 bb 43 37
       -2.6209302e-06 2.7514234e-05 -3.7887432e-05 1.1666475e-05
0001e0 43 74 f3 b6 a6 36 0c b8 da 1f e6 37 25 a6 95 b7
       -7.255499e-06 -3.3429496e-05 2.7432969e-05 -1.7839551e-05
0001f0 8e 5d a5 37 82 6c 84 b6 72 e0 8c b6 43 a8 11 38
       1.9713098e-05 -3.9465385e-06 -4.198454e-06 3.47274e-05
000200 78 f3 4b 37 e1 fd 71 b7 4e 48 5b b7 ca a9 eb 36
       1.215643e-05 -1.442383e-05 -1.3070252e-05 7.023312e-06
000210 12 8a 7f 37 66 52 f2 b4 33 90 8d 35 f6 d6 52 b7
       1.5231331e-05 -4.5135965e-07 1.0547286e-06 -1.2567025e-05
000220 99 3c 09 38 ca 8d c5 37 c4 2e d0 b7 b5 53 14 b7
       3.271978e-05 2.3550256e-05 -2.481731e-05 -8.840977e-06
000230 5a 37 18 b8 d0 1b ee 37 97 e2 ea b7 b5 5c 51 35
       -3.6291174e-05 2.8384762e-05 -2.8000488e-05 7.7993474e-07
000240 47 a7 9c b7 1c 3e 9f b7 fa d6 c8 b6 cc bc b9 b7
       -1.8674544e-05 -1.8983199e-05 -5.985491e-06 -2.2141634e-05
000250 5c 45 b4 36 79 1c ee b7 5b d8 16 b8 03 c3 1c b8
       5.3724925e-06 -2.838507e-05 -3.5964284e-05 -3.7374917e-05
000260 99 5d 84 b7 66 3c a5 b6 35 e1 9c b6 73 d7 00 b8
       -1.5779211e-05 -4.9244145e-06 -4.67538e-06 -3.071823e-05
000270 62 77 02 b8 34 a1 ce 37 b8 c3 3e b8 62 cf f9 37
       -3.11056e-05 2.463218e-05 -4.5481807e-05 2.9779683e-05
000280 ba c2 c4 37 16 5a 53 37 60 dc 00 b8 55 53 f3 b7
       2.3455697e-05 1.2597555e-05 -3.072282e-05 -2.9006662e-05
000290 d9 72 c8 36 f5 52 25 b7 e7 0a 8f 35 a6 ea 31 b8
       5.9738345e-06 -9.854081e-06 1.0657503e-06 -4.2418622e-05
0002a0 54 9b 13 b8 4e 00 b6 b7 6a 4c d7 37 d9 07 c7 b7
       -3.519219e-05 -2.1696233e-05 2.566558e-05 -2.3726303e-05
0002b0 65 fc 06 38 ee e2 b8 b7 f5 0c fe b7 4f 17 ec b7
       3.218315e-05 -2.2040182e-05 -3.0285193e-05 -2.8144246e-05
0002c0 91 ca e6 b7 e4 68 11 b8 55 a2 c7 37 4b e5 ee 37
       -2.7512464e-05 -3.466838e-05 2.379824e-05 2.8478584e-05
0002d0 82 ca 1b 37 a3 78 8f 37 e5 f1 b1 b7 87 c7 0f b8
       9.28587e-06 1.7103104e-05 -2.1212685e-05 -3.427968e-05
0002e0 2c cf 86 b7 82 25 02 b8 8f c9 c0 b7 8f 77 c7 36
       -1.6070517e-05 -3.1029347e-05 -2.2982042e-05 5.9445806e-06
0002f0 99 95 01 38 f4 54 8b b7 64 74 da 37 7b 3a aa b7
       3.089532e-05 -1.660965e-05 2.6041824e-05 -2.0292811e-05
000300 4a f1 13 b7 7a 85 07 38 b9 84 c4 37 ec 57 bd b7
       -8.818062e-06 3.2310818e-05 2.3426825e-05 -2.2571498e-05
000310 e6 88 aa 37 98 60 ed 37 43 d4 0f b5 9d c7 d2 b7
       2.0329328e-05 2.8297582e-05 -5.358053e-07 -2.5126903e-05
000320 c4 f5 9a b7 e5 a6 82 b7 c2 ea 6c b7 4c c1 d6 b6
       -1.8472674e-05 -1.5574924e-05 -1.4121355e-05 -6.4001997e-06
000330 64 fb 9d b7 35 49 ce b7 13 d7 c2 37 e7 0f 44 37
       -1.8832921e-05 -2.4591203e-05 2.3226754e-05 1.1686213e-05
000340 4e 6f c7 37 53 09 44 b7 0e 89 31 b8 89 3c d2 b7
       2.3774479e-05 -1.1684681e-05 -4.232773e-05 -2.506214e-05
000350 f0 21 fa b7 dc e3 1a b7 68 12 9c b7 9f c8 41 b8
       -2.9818126e-05 -9.232168e-06 -1.860522e-05 -4.620163e-05
000360 61 72 97 b7 9c 11 66 b7 7f b5 ef b7 93 30 ab b6
       -1.8053865e-05 -1.3713168e-05 -2.8575536e-05 -5.101852e-06
000370 32 40 ad b7 cd 11 01 b8 27 b9 04 b8 40 27 b9 37
       -2.06531e-05 -3.0772575e-05 -3.164369e-05 2.2071996e-05
000380 73 93 14 b8 96 db c0 b7 04 f1 fa b7 a1 7b 76 37
       -3.5423272e-05 -2.2990436e-05 -2.9914554e-05 1.4691527e-05
000390 8c 6e c9 b7 14 63 41 b8 bd a9 04 37 c8 e7 aa b7
       -2.4012545e-05 -4.610706e-05 7.907333e-06 -2.037351e-05
0003a0 ee 0b cd b7 5c aa fa 37 a3 b0 e2 37 8b e9 2f b8
       -2.444346e-05 2.9881652e-05 2.7023552e-05 -4.1940755e-05
0003b0 0c c7 19 b7 be 6f 99 37 99 43 09 b8 32 18 9a b7
       -9.165855e-06 1.8291055e-05 -3.27263e-05 -1.8369497e-05
0003c0 67 e0 eb b7 6b 8d c9 b7 8c 01 df 37 0d 73 b9 b7
       -2.8118679e-05 -2.402692e-05 2.6584392e-05 -2.2107293e-05
0003d0 e7 3e 17 b8 6d a6 af 37 0d 5c 48 b7 5e 18 42 b7
       -3.6059788e-05 2.0939124e-05 -1.1942361e-05 -1.15689745e-05
0003e0 cf e1 ed 37 53 ca 00 38 40 85 98 b7 a6 84 2f b7
       2.8357752e-05 3.0706007e-05 -1.8181861e-05 -1.04616975e-05
0003f0 6a 57 9a b6 b0 a4 18 b8 36 6f 64 b7 3d 3e ef 35
       -4.599734e-06 -3.6393e-05 -1.3615752e-05 1.7825001e-06
